best_model.pth (torch, 61410 bytes, 11 tensors)

conv1.weight f4 [2, 1, 1, 3]
-0.6801388 -0.19281563 -0.36498785 1.0027316 0.15900744 0.24293736
00000000: 941d 2ebf 7671 45be b0df babe 8259 803f
00000010: d9d2 223e 92c4 783e

conv1.bias f4 [2]
0.11001411 0.6455879
00000000: 144f e13d 4045 253f

conv2.weight f4 [4, 2, 1, 3]
-0.41496894 -0.18114984 0.12388315 0.8321957 0.35936472 -0.16894034 0.08925887 0.035023883
0.1329381 -0.2871801 -0.29015753 0.15291746 0.6136148 0.20003094 0.29024532 -0.4814851
-0.11110972 -0.25033006 -0.3017799 -0.063294224 -0.06896019 -0.35381693 0.15946269 -0.053508487
00000000: cf76 d4be 587f 39be 73b6 fd3d c70a 553f
00000010: a7fe b73e b2fe 2cbe 5bcd b63d 3475 0f3d
00000020: ed20 083e 4509 93be 878f 94be 6596 1c3e
00000030: dc15 1d3f e9d4 4c3e 099b 943e 3785 f6be
00000040: 7e8d e3bd 432b 80be e582 9abe 67a0 81bd
00000050: 003b 8dbd 7e27 b5be 304a 233e b72b 5bbd

conv2.bias f4 [4]
0.62400705 0.26611176 0.3267734 0.45893833
00000000: edbe 1f3f cd3f 883e d84e a73e f7f9 ea3e

conv3.weight f4 [8, 4, 2, 2]
-0.7478407 -0.075891174 0.13088478 0.05086015 0.05656526 -0.1045068 0.15364197 -0.016493393
0.5948745 0.26639864 0.19100434 -0.06405605 -0.12169996 0.13343547 0.018659074 0.21912839
0.12897481 -0.21003738 -0.1130198 -0.1723117 -0.17543627 0.17641202 -0.13500856 -0.034116097
-0.17757188 -0.20882827 -0.13274571 0.0924314 -0.24872108 0.030810231 -0.027530072 0.027398286
-0.09048691 0.23739792 -0.48640478 0.24963309 0.2135118 -0.023415206 0.29814646 0.012817854
0.29932868 0.13862655 0.47522366 -0.06000509 -0.13256533 -0.06375526 -0.028479308 -0.016949875
0.014453543 0.12884322 -0.24075253 -0.23022594 0.05511499 0.18618098 -0.24330118 0.19735935
-0.07324256 -0.0779929 -0.0014808893 -0.23043592 0.010861333 0.10990313 -0.22345026 -0.14166982
-0.07773466 0.008790023 -0.05831328 -0.07714885 0.21847545 0.07464962 0.013767455 0.24988084
0.22436632 -0.20316651 -0.051140554 0.1694733 -0.04125451 0.06562207 -0.153649 0.27070153
0.23144513 -0.062070258 0.44386825 0.051000103 -0.22987802 -0.08131549 0.19557303 -0.021881053
-0.058881972 0.12106009 0.02795929 -0.18502356 0.0876965 0.19785063 -0.24071127 0.0871153
0.09059914 -0.17269088 0.3117981 0.104994126 -0.13716601 -0.09103692 0.16509047 -0.07543739
0.095445804 0.2164243 -0.071383335 -0.11456693 0.23924026 -0.14486593 0.15599658 0.10042169
0.18125238 -0.106712386 -0.0018207971 -0.23019381 0.110917374 -0.06538522 0.016680708 0.23116618
-0.06431673 -0.006217617 -0.23708124 0.058067467 0.13025796 -0.05485809 -0.101404555 0.14872779
00000000: 7d72 3fbf d56c 9bbd a906 063e bc52 503d
00000010: f9b0 673d a907 d6bd 5254 1d3e 271d 87bc
00000020: b249 183f 6765 883e a496 433e d12f 83bd
00000030: d43d f9bd 4fa3 083e eada 983c 3163 603e
00000040: f911 043e 0a14 57be ed76 e7bd 7a72 30be
00000050: 91a5 33be 5aa5 343e af3f 0abe 52bd 0bbd
00000060: 67d5 35be 14d7 55be 7eee 07be ad4c bd3d
00000070: bdb0 7ebe bd65 fc3c bf86 e1bc 5f72 e03c
00000080: 3351 b9bd 7118 733e 0c0a f9be d19f 7f3e
00000090: d6a2 5a3e 3fd1 bfbc a7a6 983e fa01 523c
000000a0: 9c41 993e 1ef4 0d3e 8450 f33e e6c7 75bd
000000b0: 35bf 07be 1e92 82bd 704d e9bc 77da 8abc
000000c0: 8ece 6c3c 7aef 033e d587 76be 59c0 6bbe
000000d0: 41c0 613d 3aa6 3e3e f223 79be 9218 4a3e
000000e0: 3200 96bd beba 9fbd 661a c2ba 65f7 6bbe
000000f0: bcf3 313c e414 e13d 25d0 64be e511 11be
00000100: 5933 9fbd 0704 103c e8d9 6ebd 3700 9ebd
00000110: 07b8 5f3e e6e1 983d e490 613c c3e0 7f3e
00000120: 49c0 653e e20a 50be c278 51bd 698a 2d3e
00000130: 7dfa 28bd dd64 863d 2a56 1dbe 6499 8a3e
00000140: f4ff 6c3e 623d 7ebd b342 e33e 7ce5 503d
00000150: 2565 6bbe bc88 a6bd 4c44 483e e53f b3bc
00000160: 392e 71bd 5aee f73d e20a e53c d176 3dbe
00000170: 399a b33d 5b99 4a3e 047d 76be 8269 b23d
00000180: 0b8c b93d e1d5 30be 00a4 9f3e 2907 d73d
00000190: 3f75 0cbe 9171 babd 7a0d 293e eb7e 9abd
000001a0: 1779 c33d 559e 5d3e 6d31 92bd 11a2 eabd
000001b0: 66fb 743e bc57 14be 91bd 1f3e e3a9 cd3d
000001c0: 399a 393e 068c dabd d0a7 eeba edb7 6bbe
000001d0: a628 e33d b0e8 85bd fba5 883c d4b6 6c3e
000001e0: 7db8 83bd 27bd cbbb 6dc5 72be 27d8 6d3d
000001f0: 5862 053e e0b2 60bd 31ad cfbd 194c 183e

conv3.bias f4 [8]
0.25859043 0.0806046 0.25839064 0.011138034 -0.10587436 0.2951515 -0.1416451 -0.097602315
00000000: f765 843e 0614 a53d c74b 843e 4d7c 363c
00000010: a8d4 d8bd 191e 973e 6a0b 11be b9e3 c7bd

fc1.weight f4 [100, 120]
0.021466356 0.048460577 0.09230153 -0.04601815 -0.039920907 0.046077494 -0.031679474 0.010615471
-0.09061029 -0.09087766 0.01375684 -0.052152846 -0.016408898 -0.0539212 -0.049340498 0.076823995
0.03854415 0.06568752 0.030876994 0.08379859 -0.04793431 0.034275707 -0.0621415 -0.0032754987
-0.09112651 -0.012995303 0.011463199 0.059370726 -0.08999001 0.07485873 -0.009225602 -0.046259385
-0.013946413 -0.08625045 -0.05968274 0.07363715 -0.021505268 0.027076194 -0.011090575 -0.08381634
-0.028520523 0.07735106 0.06164904 -0.038476232 0.024446912 -0.0070077553 0.019401975 -0.068881325
-0.03132548 -0.041895136 0.08037192 0.052588537 -0.061214946 -0.032306746 0.0901499 0.040146586
-0.035221774 0.005202912 0.028934574 -0.051039703 -0.013573649 0.027211478 -0.008893322 0.02535798
0.028753225 0.053154454 0.013839149 0.05037069 -0.055815537 0.041948263 -0.0730938 0.014913244
0.017174589 -0.08069162 0.057956677 0.08323155 0.0017922483 -0.037287597 -0.025378568 -0.08315678
0.0066351835 -0.057853512 0.009967462 0.059230193 0.0047374303 0.024711022 0.052867115 0.0062017497
0.0673954 -0.00625873 -0.05715348 -0.032871682 0.013142688 -0.07826512 -0.018069591 0.04873964
0.009725045 -0.050197344 -0.08350419 -0.023664659 0.0349531 -0.03622265 0.0012706316 0.006150256
-0.029794946 -0.03503601 -0.017883072 0.08795263 0.049915858 -0.06438922 -0.022297129 -0.015972003
0.011918813 -0.055787753 -0.06776846 -0.08061429 -0.050662573 0.0862351 0.055253636 0.08221817
0.061710022 -0.013706487 0.013514762 -0.061709937 0.07928053 0.16146086 -0.037141345 -0.021649152
-0.061800715 0.10233978 -0.04994514 0.07425092 0.059632488 -0.07801964 -0.0448432 -0.054478433
0.07027524 -0.052981675 0.05384239 0.05647324 0.06260045 0.012963588 -0.090231225 -0.0019177479
0.029778544 -0.08087484 -0.08178054 0.04469281 -0.084582046 -0.008362111 0.10578271 0.023567026
0.039359048 0.08868633 -0.043605547 0.059251793 -0.026442783 -0.073765285 -0.07430236 -0.04538358
0.12478791 0.030956406 0.048943616 -0.013472907 0.012469365 -0.021515876 0.040697902 0.05267001
-0.076659195 -0.07358113 0.06595131 0.04171948 -0.059567988 0.08081604 0.021450829 0.08933571
-0.031799495 -0.017593507 0.008429878 -0.06483653 -0.029221674 0.022756064 0.074315205 -0.040761244
0.07674461 -0.020616276 -0.092635065 -0.00070830365 -0.02164555 -0.014950815 0.0036609708 0.025309132
0.024950169 -0.073953286 -0.05394389 -0.13048014 -0.009697515 0.11066939 0.062107746 -0.060826924
0.037779205 0.03679219 0.009024841 -0.009890994 -0.058925785 0.02016883 -0.013372003 -0.057007235
0.059461463 -0.014641464 0.031834263 -0.051931195 -0.010575546 -0.023342667 -0.06557417 -0.038996983
-0.04708731 -0.09244574 -0.077333786 -0.07452749 -0.036923703 0.015546822 0.031875312 -0.0020487166
-0.064184435 -0.07383926 0.06637395 -0.05966955 -0.08152629 0.019798566 0.019617265 0.02338899
-0.064716 0.07321335 0.07445437 0.025978914 -0.031556487 0.04126814 0.0626441 0.010492566
-0.0861369 0.047840554 0.034676187 0.025601648 -0.0825664 0.06160849 0.048033245 -0.09079378
0.0040443526 0.06148799 -0.04075925 0.07970092 -0.046083737 0.05214348 0.004320649 -0.036720194
00000000: 36da af3c 997e 463d 9608 bd3d 877d 3cbd
00000010: 1b84 23bd c1bb 3c3d 56c2 01bd 83ec 2d3c
00000020: e391 b9bd 111e babd 5e64 613c 399e 55bd
00000030: f46b 86bc 7adc 5cbd 4319 4abd e655 9d3d
00000040: 78e0 1d3d 2e87 863d c0f1 fc3c 989e ab3d
00000050: c456 44bd af64 0c3d 1688 7ebd c0a9 56bb
00000060: 89a0 babd 40ea 54bc 24d0 3b3c b82e 733d
00000070: af4c b8bd 894f 993d fb26 17bc 7b7a 3dbd
00000080: 7f7f 64bc 13a4 b0bd e475 74bd 13cf 963d
00000090: d12b b0bc e5ce dd3c 3eb5 35bc e7a7 abbd
000000a0: dfa3 e9bc 3c6a 9e3d b483 7c3d 4199 1dbd
000000b0: e444 c83c 50a1 e5bb e4f0 9e3c a711 8dbd
000000c0: 264f 00bd 3c9a 2bbd 089a a43d 1467 573d
000000d0: 86bc 7abd 1454 04bd 83a0 b83d bf70 243d
000000e0: b544 10bd 307d aa3b 3308 ed3c 020f 51bd
000000f0: 0364 5ebc 9bea de3c 4cb5 11bc 8abb cf3c
00000100: e28b eb3c 7cb8 593d 99bd 623c 7f51 4e3d
00000110: d59e 64bd f1d1 2b3d 34b2 95bd ae56 743c
00000120: b9b1 8c3c a641 a5bd fb63 6d3d 4e75 aa3d
00000130: e0e9 ea3a e1ba 18bd b7e6 cfbc 1a4e aabd
00000140: f46b d93b cef7 6cbd 914e 233c 5c9b 723d
00000150: 723c 9b3b c56e ca3c 308b 583d 0c38 cb3b
00000160: 9906 8a3d 0816 cdbb c419 6abd 75a4 06bd
00000170: 6e54 573c 7749 a0bd ae06 94bc 37a3 473d
00000180: cc55 1f3c bb9b 4dbd 3f04 abbd 63dc c1bc
00000190: fb2a 0f3d 345e 14bd 528b a63a 1688 c93b
000001a0: 8814 f4bc eb81 0fbd 857f 92bc 8220 b43d
000001b0: 9274 4c3d 7fde 83bd 78a8 b6bc b8d7 82bc
000001c0: 2047 433c b381 64bd 31ca 8abd 1b19 a5bd
000001d0: 8f83 4fbd 079c b03d a351 623d 0062 a83d
000001e0: a6c3 7c3d 2c91 60bc 056d 5d3c 8fc3 7cbd
000001f0: d55d a23d ff55 253e 8621 18bd 9059 b1bc
00000200: bf22 7dbd 8597 d13d 4693 4cbd de10 983d
00000210: 3241 743d c3c8 9fbd 81ad 37bd c724 5fbd
00000220: 77ec 8f3d 5003 59bd d789 5c3d 7c50 673d
00000230: aa34 803d 3b65 543c 26cb b8bd f15c fbba
00000240: 22f2 f33c b5a1 a5bd 8e7c a7bd cf0f 373d
00000250: 5a39 adbd 3c01 09bc 9ba4 d83d a30f c13c
00000260: f436 213d 2ea1 b53d bb9b 32bd 02b2 723d
00000270: 899e d8bc 4112 97bd d62b 98bd 22e4 39bd
00000280: ce90 ff3d 4a98 fd3c 1a79 483d 78bd 5cbc
00000290: 4f4c 4c3c 1042 b0bc d8b2 263d 82bc 573d
000002a0: 7fff 9cbd b4b1 96bd 7b11 873d 0ce2 2a3d
000002b0: 90fd 73bd e182 a53d a6b9 af3c a4f5 b63d
000002c0: 3040 02bd 4220 90bc 791d 0a3c 04c9 84bd
000002d0: 4b62 efbc ed6a ba3c 9232 983d 43f5 26bd
000002e0: 472c 9d3d 77e3 a8bc 74b7 bdbd 74ad 39ba
000002f0: 0252 b1bc 43f4 74bc e6ec 6f3b 1955 cf3c
00000300: 4c64 cc3c d274 97bd 45f4 5cbd 969c 05be
00000310: 53e2 1ebc a2a6 e23d b164 7e3d a725 79bd
00000320: 5ebe 1a3d 68b3 163d eddc 133c d60d 22bc
00000330: 2a5c 71bd 1a39 a53c 3f16 5bbc 6b80 69bd
00000340: dd8d 733d c0e2 6fbc a564 023d ceb5 54bd
00000350: 0e45 2dbc 1f39 bfbc c04b 86bd 4dbb 1fbd
00000360: a0de 40bd 3154 bdbd 2d61 9ebd dea1 98bd
00000370: 4f3d 17bd 19b8 7e3c b08f 023d c343 06bb
00000380: 2173 83bd 0a39 97bd 11ef 873d 0f68 74bd
00000390: 41f7 a6bd 9a30 a23c 63b4 a03c 449a bf3c
000003a0: d289 84bd e1f0 953d 887b 983d bbd1 d43c
000003b0: 6041 01bd c808 293d 8d4b 803d 03e9 2b3c
000003c0: 8b68 b0bd 75f4 433d 9e08 0e3d 8cba d13c
000003d0: 9318 a9bd 2f59 7c3d 82be 443d 17f2 b9bd
000003e0: 7d86 843b d5da 7b3d 2cf3 26bd 3c3a a33d
000003f0: 4dc2 3cbd 6794 553d 3b94 8d3b ea67 16bd

fc1.bias f4 [100]
-0.032738265 0.0782394 -0.08316685 0.09304409 0.03677092 -0.007731296 0.03966266 0.060192637
-0.017378509 0.028678559 0.03873691 -0.0021325608 0.032769088 -0.0020324772 -0.03394846 -0.047027085
-0.014857471 0.071431585 0.08634083 0.038920235 0.022205222 -0.07240318 0.049792804 -0.035181124
-0.08395887 -0.052037787 -0.041574948 -0.06698682 -0.051605213 0.04953932 -0.046287294 0.050278816
0.0056151855 -0.054569867 0.06523807 0.07798396 0.046076596 -0.008792625 -0.058463957 0.071085975
0.013586023 0.029518967 0.029055959 -0.08436089 0.05831009 -0.03210948 0.038200106 0.0868707
0.020012649 0.06861731 0.053919107 0.031370614 -0.009865209 0.07352977 -0.04470898 0.004117259
0.031134468 -0.041425213 -0.08157683 -0.052800287 -0.06398206 -0.05450081 -0.0036364985 -0.08383611
0.07995927 -0.04522599 -0.0025658547 -0.015735997 0.054722566 0.036160823 -0.048129193 -0.027055537
0.043527063 0.07488074 -0.032412853 0.10519944 -0.059295435 -0.021296743 -0.073141925 0.0538937
-0.029544814 -0.03402378 -0.07060071 -0.046268053 -0.018407717 0.07346853 -0.07515838 -0.02060602
0.021510681 0.017062763 0.029062644 -0.00727551 0.06505494 -0.050289504 0.022266507 -0.0039787996
0.011448114 0.07611797 -0.017699137 0.038338028
00000000: 8f18 06bd fb3b a03d 6253 aabd e68d be3d
00000010: 1b9d 163d d056 fdbb 5075 223d 8e8c 763d
00000020: 605d 8ebc 4cef ea3c 98aa 1e3d 6fc2 0bbb
00000030: e138 063d 4f33 05bb 8a0d 0bbd 799f 40bd
00000040: c06c 73bc b94a 923d 76d3 b03d d36a 1f3d
00000050: bae7 b53c 1e48 94bd 8af3 4b3d 151a 10bd
00000060: a1f2 abbd 9325 55bd 7e4a 2abd 6330 89bd
00000070: fd5f 53bd bee9 4a3d bf97 3dbd 29f1 4d3d
00000080: 97ff b73b a784 5fbd 8a9b 853d 0eb6 9f3d
00000090: d0ba 3c3d f10e 10bc e777 6fbd 8695 913d
000000a0: e997 5e3c c3d1 f13c c306 ee3c 67c5 acbd
000000b0: 90d6 6e3d 3b85 03bd b777 1c3d 44e9 b13d
000000c0: 91f1 a33c 3b87 8c3d 48da 5c3d 797e 003d
000000d0: b0a1 21bc c796 963d c320 37bd 12ea 863b
000000e0: b60d ff3c 7cad 29bd c111 a7bd 1d45 58bd
000000f0: 0709 83bd 3e3c 5fbd 5252 6ebb 44b2 abbd
00000100: b0c1 a33d e33e 39bd e627 28bb c7e8 80bc
00000110: c524 603d 5f1d 143d 1e23 45bd 93a3 ddbc
00000120: 6f49 323d 135b 993d 57c3 04bd ce72 d73d
00000130: c5df 72bd 8276 aebc 6fcb 95bd a4bf 5c3d
00000140: f707 f2bc 855c 0bbd 1b97 90bd 9283 3dbd
00000150: c8cb 96bc ab76 963d a3ec 99bd f5cd a8bc
00000160: 2b37 b03c 35c7 8b3c c814 ee3c 6767 eebb
00000170: 863b 853d 5efc 4dbd 4068 b63c 9760 82bb
00000180: df90 3b3c bde3 9b3d c8fd 90bc 5608 1d3d

fc2.weight f4 [20, 100]
-0.03762298 -0.035085373 0.07319763 0.01791291 -0.055941764 -0.040026814 0.04759518 -0.04193711
-0.066636294 -0.07634468 0.024835316 -0.06810276 0.08982439 0.036390714 0.04510353 0.038456608
0.003954173 0.0995901 -0.09607644 0.08516305 -0.015004991 0.05101618 -0.046596054 -0.043966904
-0.01770274 -0.05572701 0.047278732 0.116039865 -0.033611152 0.04006172 -0.012194325 0.063602656
-0.098017365 0.05962122 0.01451532 -0.011379364 -0.038593195 0.04324725 -0.040451676 0.09954426
-0.06828505 0.0039628157 -0.009818265 -0.028204279 -0.071424656 0.099944815 0.05828774 0.006750825
0.015129038 -0.07408426 0.09224755 -0.09064059 0.07350128 -0.002498205 0.03652382 -0.017725796
0.061095864 0.04351932 0.009727045 0.073556885 -0.08500766 0.09883591 0.04033173 0.092235185
0.032007586 0.033240244 0.040441073 -0.0042884424 0.09748541 0.088301994 0.03398967 -0.009213791
-0.0884316 0.059070054 0.027054625 -0.040779136 0.0022327232 -0.06235092 0.10427022 0.081851035
0.07130009 0.04795288 -0.06251716 0.0394439 0.06432249 0.06317261 0.0016019659 -0.0059166467
0.056790855 -0.08443914 0.1102256 -0.020487899 0.023540402 0.093448214 0.07032132 -0.011211503
0.022812897 0.07274779 -0.013294987 -0.05386339 0.021208644 -0.043823835 -0.09355652 -0.07177546
0.0031570252 0.04363955 -0.0025725253 -0.091827646 -0.08051854 0.09437192 -0.02466081 -0.03890065
-0.057969347 -0.09447168 -0.08504456 -0.071394406 0.08988919 0.010106676 0.06992161 -0.09408064
-0.06830336 0.08016247 0.08379922 -0.008462232 0.010210276 -0.08153401 0.034491602 0.06820127
0.07330912 0.021639043 -0.044775393 0.059330985 -0.06263742 -0.025777226 0.08055833 -0.08399267
0.03825255 -0.083442375 0.018672984 -0.06951127 0.03466448 -0.07680981 -0.05749473 0.04158774
-0.061406195 0.009345077 -0.083175585 0.0055386475 0.094475344 0.059359588 0.076928124 -0.0631815
0.049729213 -0.051675286 -0.0029333883 -0.06838514 0.09892061 -0.09356985 -0.0752539 -0.035755552
-0.0006818361 -0.09440725 -0.084597826 -0.096045375 -0.03804589 0.08076174 0.07288149 -0.08232807
-0.06131842 0.012449124 0.05413706 -0.018253746 0.06403 0.034785397 -0.019830689 -0.08777081
0.013238646 0.056947835 -0.0040607415 0.0683934 -0.041871533 -0.09730784 -0.034909703 -0.043258462
-0.06884209 -0.0804634 -0.021035153 -0.001784991 0.019238101 0.06900161 -0.0065866783 0.040127628
-0.025511922 -0.06690395 0.015529579 -0.008934515 -0.0336227 -0.020067582 -0.033297334 0.035676718
-0.06787597 -0.08358809 -0.014202522 -0.03676462 0.06809718 -0.079082705 -0.04257834 -0.01865112
0.09299318 0.082938604 -0.017272381 0.008022637 -0.050622683 -0.03343778 0.00023873332 -0.02431842
0.07900174 -0.04141564 0.05762317 -0.04492226 0.049244374 0.07980078 -0.09702379 0.0364761
-0.08097167 0.015168234 0.059698034 -0.053548753 0.09391846 0.01045671 -0.0912998 -0.076475315
-0.043620598 -0.07295696 0.05674005 0.03315748 0.08592135 -0.09999254 -0.018829186 0.022425689
0.010113042 0.07487343 -0.023571366 0.018915273 0.056679577 -0.043631654 -0.06339148 -0.052153487
0.097691156 0.07059874 0.035753645 0.07764317 -0.028669305 0.013953871 -0.075117335 -0.05909873
00000000: 8e1a 1abd aeb5 0fbd a4e8 953d 18be 923c
00000010: 3123 65bd 28f3 23bd 2af3 423d 3fc6 2bbd
00000020: 9c78 88bd 995a 9cbd 6f73 cb3c 7679 8bbd
00000030: daf5 b73d 6e0e 153d 7bbe 383d ad84 1d3d
00000040: 0292 813b e5f5 cb3d b9c3 c4bd f769 ae3d
00000050: 7ed7 75bc 58f6 503d 81db 3ebd a416 34bd
00000060: 5605 91bc 0142 64bd 58a7 413d 4fa6 ed3d
00000070: d9ab 09bd c217 243d b5ca 47bc 1c42 823d
00000080: 54bd c8bd 6135 743d aad1 6d3c 8370 3abc
00000090: e613 1ebd 0724 313d a8b0 25bd dcdd cb3d
000000a0: 08d9 8bbd 82da 813b cadc 20bc a90c e7bc
000000b0: 1747 92bd deaf cc3d 20bf 6e3d 0636 dd3b
000000c0: c9df 773c 7db9 97bd 49ec bc3d c6a1 b9bd
000000d0: d787 963d edb8 23bb 009a 153d b035 91bc
000000e0: a83f 7a3d 5141 323d 2f5e 1f3c fea4 963d
000000f0: 7f18 aebd 7b6a ca3d e232 253d cde5 bc3d
00000100: 631a 033d ec26 083d 8aa5 253d 1086 8cbb
00000110: 6ea6 c73d add7 b43d c138 0b3d 71f5 16bc
00000120: a01b b5bd 71f3 713d a9a1 dd3c 0608 27bd
00000130: e152 123b ae63 7fbd a08b d53d 84a1 a73d
00000140: c805 923d 3d6a 443d ff08 80bd ed8f 213d
00000150: 82bb 833d a460 813d 0ef9 d13a 6ee0 c1bb
00000160: 879d 683d 6eee acbd f6bd e13d 3dd6 a7bc
00000170: cdd7 c03c c761 bf3d a004 903d 74b0 37bc
00000180: 1de2 ba3c cbfc 943d 38d3 59bc dc9f 5cbd
00000190: c0bd ad3c 9f80 33bd 909a bfbd 03ff 92bd
000001a0: 18e6 4e3b 63bf 323d d097 28bb 2210 bcbd
000001b0: e8e6 a4bd 1146 c13d 7805 cabc 4a56 1fbd
000001c0: 4471 6dbd 5e7a c1bd d82b aebd 3b37 92bd
000001d0: d317 b83d 7996 253c 1033 8f3d 5aad c0bd
000001e0: a2e2 8bbd 392c a43d ed9e ab3d 2ca5 0abc
000001f0: 0049 273c 4efb a6bd 1147 0d3d 1cad 8b3d
00000200: 1823 963d 5d44 b13c 6766 37bd 0c05 733d
00000210: 0c48 80bd c32a d3bc c4fb a43d 5904 acbd
00000220: b5ae 1c3d d6e3 aabd 16f8 983c ed5b 8ebd
00000230: 57fc 0d3d 764e 9dbd 987f 6bbd e857 2a3d
00000240: 1085 7bbd 181c 193c f657 aabd 8b7d b53b
00000250: 4a7c c13d 0a23 733d 7e8c 9d3d 4d65 81bd
00000260: dcb0 4b3d 77a9 53bd 173e 40bb 820d 8cbd
00000270: e496 ca3d 8da1 bfbd b71e 9abd 6a74 12bd
00000280: 3fbd 32ba 9758 c1bd a041 adbd 70b3 c4bd
00000290: 02d6 1bbd 6966 a53d e442 953d 9f9b a8bd
000002a0: 0629 7bbd 69f7 4b3c d2be 5d3d e188 95bc
000002b0: 2922 833d 227b 0e3d f873 a2bc 2fc1 b3bd
000002c0: e8e6 583c 2242 693d f80f 85bb d711 8c3d
000002d0: 7c81 2bbd 5549 c7bd 7afd 0ebd c92f 31bd
000002e0: 15fd 8cbd ffc9 a4bd ea51 acbc 5cf6 e9ba
000002f0: 3999 9d3c b750 8d3d 10d5 d7bb de5c 243d
00000300: 61fe d0bc f004 89bd c66f 7e3c 1262 12bc
00000310: f5b7 09bd c564 a4bc c962 08bd c021 123d
00000320: 8e02 8bbd 3c30 abbd b2b1 68bc 8096 16bd
00000330: 8976 8b3d 1df6 a1bd a066 2ebd 3cca 98bc
00000340: 3573 be3d b7db a93d cf7e 8dbc 6171 033c
00000350: bb59 4fbd 0ef6 08bd 7d54 7a39 6c37 c7bc
00000360: aacb a13d 72a3 29bd 4606 6c3d 6700 38bd
00000370: 78b4 493d 976e a33d 69b4 c6bd f767 153d
00000380: 7ad4 a5bd 2f84 783c ed85 743d f055 5bbd
00000390: 5258 c03d 9f52 2b3c 64fb babd 179f 9cbd
000003a0: 83ab 32bd 756a 95bd 4168 683d 23d0 073d
000003b0: 88f7 af3d e4c8 ccbd aa3f 9abc 14b6 b73c
000003c0: 2cb1 253c 3e57 993d bd18 c1bc 34f4 9a3c
000003d0: d828 683d 1bb7 32bd 64d3 81bd e59e 55bd
000003e0: 4d12 c83d 1296 903d 6a72 123d 6203 9f3d
000003f0: e4db eabc c79e 643c 1ed7 99bd 8311 72bd

fc2.bias f4 [20]
0.051994257 -0.07096971 0.017343933 0.58964056 0.032204933 0.04179615 -0.07603566 0.34617537
0.01616997 0.050978113 0.22897486 -0.070553035 -0.07291765 0.031277545 -0.06966998 -0.037129644
0.05282307 -0.03222728 0.0075669554 -0.066824645
00000000: eef7 543d 9158 91bd dd14 8e3c aff2 163f
00000010: 52e9 033d 7132 2b3d 96b8 9bbd e63d b13e
00000020: e376 843c 6dce 503d 6378 6a3e 1c7e 90bd
00000030: d955 95bd e21c 003d 22af 8ebd 4115 18bd
00000040: 015d 583d c100 04bd 39f4 f73b 5cdb 88bd

fc3.weight f4 [1, 20]
0.1580695 0.07270802 -0.22232997 1.1098149 -0.14666472 -0.22169454 -0.22284123 0.6057364
-0.07319136 0.22649664 0.54713273 -0.031110033 -0.12028898 -0.1984954 -0.0015027879 -0.11903818
0.035584398 -0.080948144 -0.039925475 -0.22811359
00000000: f9dc 213e f1e7 943d 78aa 63be 6a0e 8e3f
00000010: 472f 16be e503 63be 7e30 64be 8a11 1b3f
00000020: 5ae5 95bd bcee 673e e410 0c3f 78da febc
00000030: 125a f6bd 6142 4bbe 32f9 c4ba 4aca f3bd
00000040: f2c0 113d 24c8 a5bd e588 23bd 9c96 69be
